…
.model = nn.Sequential(*self.layers)      def forward(self, x):         return self.model(x)  In\u00a0[12]: Copied! <pre>mlp = MyMLP(input_size, 8, 16, output_size)\nmlp.apply(xavier_init)\nmlp.to(device)\n\nsummary(mlp, input_size=(1,))\n</pre> mlp = MyMLP(input_size, 8, 16, output_size) mlp.apply(xavier_init) mlp.to(device)  summary(mlp, input_size=(1,)) <pre>----------------------------------------------------------------\n        Layer (type)               Output Shape         Param #\n================================================================\n            Linear-1                   [-1, 16]              32\n              ReLU-2                   [-1, 16]               0\n            Linear-3                   [-1, 16]             272\n              ReLU-4                   [-1, 16]               0\n            Linear-5                   [-1, 16]             272\n              ReLU-6                   [-1, 16]               0\n            Linear-7                   [-1, 16]             272\n              ReLU-8                   [-1, 16]               0\n            Linear-9                   [-1, 16]             272\n             ReLU-10                   [-1, 16]               0\n           Linear-11                   [-1, 16]             272\n             ReLU-12                   [-1, 16]               0\n           Linear-13                   [-1, 16]             272\n             ReLU-14                   [-1, 16]               0\n           Linear-15                   [-1, 16]             272\n             ReLU-16                   [-1, 16]               0\n           Linear-17                    [-1, 1]              17\n================================================================\nTotal params: 1,953\nTrainable params: 1,953\nNon-trainable params: 0\n----------------------------------------------------------------\nInput size (MB): 0.00\nForward/backward pass size (MB): 0.00\nParams size (MB): 0.01\nEstimated Total Size (MB): 0.01\n----------------------------------------------------------------\n</pre> In\
…
: Copied! <pre>from torchsummary import summary\n</pre> from torchsummary import summary In\u00a0[18]: Copied! <pre>dummy_input = torch.tensor([0.1, 0.2]).to(device)\nmodel = models[0]\n</pre> dummy_input = torch.tensor([0.1, 0.2]).to(device) model = models[0] In\u00a0[19]: Copied! <pre>summary(model, input_size=(2,))\n</pre> summary(model, input_size=(2,)) <pre>----------------------------------------------------------------\n        Layer (type)               Output Shape         Param #\n================================================================\n            Linear-1                  [-1, 256]             768\n              ReLU-2                  [-1, 256]               0\n            Linear-3                  [-1, 256]          65,792\n              ReLU-4                  [-1, 256]               0\n            Linear-5                  [-1, 256]          65,792\n              ReLU-6                  [-1, 256]               0\n            Linear-7                  [-1, 256]          65,792\n              ReLU-8                  [-1, 256]               0\n            Linear-9                  [-1, 256]          65,792\n             ReLU-10                  [-1, 256]               0\n           Linear-11                  [-1, 256]          65,792\n             ReLU-12                  [-1, 256]               0\n           Linear-13                  [-1, 256]          65,792\n             ReLU-14                  [-1, 256]               0\n           Linear-15                  [-1, 256]          65,792\n             ReLU-16                  [-1, 256]               0\n           Linear-17                    [-1, 3]             771\n================================================================\nTotal params: 462,083\nTrainable params: 462,083\nNon-trainable params: 0\n----------------------------------------------------------------\nInput size (MB): 0.00\nForward/backward pass size (MB): 0.03\nParams size (MB): 1.76\nEstimated Total Size (MB): 1.79\n----------------------------------------------------------------\n</pre>
…
